decoder/best_fists_eegnet_model.pth (torch, 27785 bytes, 16 tensors)

firstconv.weight f4 [8, 1, 1, 64]
000000 d9 f0 fc 3d d3 c9 fb 3d f3 cc 82 bc 43 1f f9 3d
       0.123506255 0.12294354 -0.015966868 0.12164166
000010 a1 b3 c1 bc de 5d d5 3c e1 12 8e bd 84 04 6e 3d
       -0.023645224 0.026045736 -0.069371946 0.058109775
000020 0f e7 b9 3d 44 19 f4 bd 6c 5c a5 3d 94 00 10 bb
       0.09077274 -0.119188815 0.08074269 -0.0021973
000030 b2 05 80 3d d8 ab 8f bc cb d9 d0 3c 78 2d 4b bd
       0.06251086 -0.017537996 0.025494477 -0.04960391
000040 87 f7 80 3d 77 81 8b bc 1f 02 be bd 8d 5d 80 bb
       0.06297212 -0.017029507 -0.09277748 -0.003917402
000050 a4 f7 bd bd 0a 3c 36 bd 8f ae 99 bd 15 f3 6c 3d
       -0.09275749 -0.04449085 -0.075039975 0.05784901
000060 15 a9 fc bd 45 86 a2 bd fe 90 6e bd d2 e3 cf bd
       -0.12336937 -0.07935766 -0.058243744 -0.10150875
000070 89 09 84 bc 23 6b 19 be 38 5c ae 3d ab 9b 06 be
       -0.016117828 -0.14982276 0.08513683 -0.1314532
000080 41 63 97 3d b4 ea b9 b6 da 96 6b bd c6 8a 72 3d
       0.07391978 -5.5407527e-06 -0.05751691 0.059214376
000090 51 ad 2d bb c8 cf ab 3d 64 80 5e 3b 62 eb 50 bd
       -0.002650101 0.083892405 0.0033951038 -0.05100573
0000a0 3a 27 d0 3c ee ca 20 bd 6d 46 3c 3d c7 c8 dd 3d
       0.02540933 -0.03925603 0.0459656 0.10829311
0000b0 61 84 8f 3d cd 19 66 bd e6 4d 94 3d 1f 4a dc 3c
       0.07007671 -0.05617695 0.072414204 0.026890812
0000c0 5e 21 96 3d 03 33 85 bd 58 82 e2 bd 24 9f 03 bd
       0.07330583 -0.0650387 -0.11060017 -0.03213419
0000d0 ee 6d ad bd 15 50 e0 3d de 07 2d 3d ff 37 75 3d
       -0.08468233 0.109527744 0.04224383 0.059867855
0000e0 47 97 4a 3d 3b 53 a6 3b d9 48 da 3d b8 b0 a1 bd
       0.049460676 0.00507584 0.10658426 -0.078950346
0000f0 c1 6d 93 3c ea 98 97 bd 14 05 46 3d 07 7d 01 bd
       0.01799667 -0.07402213 0.048344687 -0.031613376
000100 bd f8 a5 3b 96 d6 72 bd d6 4d 92 3d 5e 64 ce bd
       0.0050650523 -0.059286676 0.07143752 -0.10077737
000110 95 be cd bd 2b 4c c5 bd ab 69 bb 3d e3 a2 00 3d
       -0.10046116 -0.096336685 0.09151014 0.03140534
000120 a9 75 e0 3d 19 b7 e4 bd c9 e1 00 be 4d fd cc bd
       0.10959942 -0.111677356 -0.1258613 -0.10009251
000130 9d 13 bc bd 3c e1 2c 3d 4f 67 1d 3d 5b 58 c4 3d
       -0.091834284 0.042206988 0.0384286 0.09587165
000140 11 d0 8d bd 3c 5d b4 bd 84 2c 6e 3d 9b 5a 63 bd
       -0.06924451 -0.088068455 0.058147922 -0.05550633
000150 1e a6 8e 3d be a3 02 bd a8 5a 86 3d 28 5a cf bd
       0.06965278 -0.031894438 0.0656026 -0.10124618
000160 f1 56 94 bd ad b6 0e 3d 07 4c d2 3c 74 1f 29 bd
       -0.07243145 0.034842182 0.025671018 -0.04128976
000170 8f 8c 84 3d 2d 8e a3 3d cf cc d3 bd 30 55 9f bd
       0.06472122 0.07986102 -0.103417985 -0.0777992
000180 62 ef e4 3d 8b ba 21 bd 1b 48 23 bd bd 0f da bd
       0.11178471 -0.039484542 -0.039863687 -0.10647533
000190 8a 61 5c bd 33 f5 61 3d 58 f8 8d 39 6b c2 89 bd
       -0.053803958 0.05516548 0.00027078646 -0.067265354
0001a0 09 fe fb 3c dd 0b a0 bd 37 2b d7 bd fd 69 22 bd
       0.030760782 -0.07814763 -0.105062895 -0.03965186
0001b0 69 2f 92 bd 82 aa 2e bd f6 bf 15 3e 9d e0 0a 3d
       -0.07137949 -0.042643078 0.14624009 0.033905614
0001c0 bd 9b 38 3d 03 83 d0 bd bc c2 8a bd b9 20 a6 bc
       0.0450704 -0.101812385 -0.06775424 -0.020279275
0001d0 a7 01 0f 3d 3c bb c6 bd 5f ee 35 bd 99 55 88 bd
       0.034913685 -0.09703681 -0.04441678 -0.066569515
0001e0 7f 8e fa 3b 1f 15 fb bc 51 a2 1b 3c 9d 75 90 bd
       0.0076463814 -0.03064972 0.0094991485 -0.07053683
0001f0 a2 a3 a7 bd 1a 7e 86 bd bd 20 19 bd f2 0f c4 bd
       -0.08185507 -0.06567021 -0.037384737 -0.09573354
000200 aa c9 eb 3d a4 44 88 bc c9 f9 ea 3d ce 73 3d 3d
       0.11513074 -0.016634293 0.11473424 0.046253018
000210 51 b9 ca bd ce a5 bf 3d 13 76 d2 bc 4a 81 1e bd
       -0.098986275 0.093577966 -0.025691068 -0.03869752
000220 75 21 c2 bd 4c 92 f2 bd f0 ab 1b 3d 74 0e db bc
       -0.09479038 -0.1184431 0.03800577 -0.02674029
000230 0a d4 40 3d ff e1 d5 bd 0c d5 b6 3d c3 5c c6 bd
       0.047077216 -0.10443496 0.08927354 -0.09685662
000240 e3 62 ec bc 36 62 8c 3c c3 82 58 3d 6c e0 b2 3d
       -0.028855747 0.017136674 0.05285908 0.08734211
000250 d7 15 cb 3d af 2e e7 bd ba b9 a2 3c ba 38 86 bd
       0.09916275 -0.11288201 0.019863952 -0.065537885
000260 36 b0 e8 bc 27 c2 de bd 1f 72 c4 3d a5 bf e6 bd
       -0.028404336 -0.10876875 0.09592079 -0.11267022
000270 c6 5e 2e 3d 9b 50 a5 3c 1d a1 72 3c 49 28 bc bd
       0.04257085 0.020180037 0.01480892 -0.09187371
000280 e0 f9 ba 3d a3 86 fb 3b 2a ed 8a bb 8c 94 01 be
       0.09129691 0.007675962 -0.004239698 -0.12654322
000290 25 89 2b 3d ae f5 dc bc 02 89 88 bd 2f af cb 3d
       0.041878838 -0.026972618 -0.06666757 0.09945523
0002a0 ec a4 aa 3c 40 9e 9d bd eb d2 92 bd 0c 07 47 bc
       0.020830594 -0.076961994 -0.07169136 -0.012147676
0002b0 7a 11 86 3d da b1 16 bd 00 34 99 bd bb 05 3e bd
       0.06546302 -0.036790706 -0.07480621 -0.046392184
0002c0 02 6a cc bd 96 d8 0c 3d 51 b0 aa 3d eb c6 0a be
       -0.09981157 0.03438624 0.08334411 -0.13552444
0002d0 36 e6 ee 3b 86 f8 2a 3d 03 59 c3 bb 8c 64 98 bd
       0.007290627 0.041740917 -0.0059615388 -0.07441053
0002e0 9d 3d 15 3d f9 86 15 3d 9c 17 95 3c 10 4e 4a bd
       0.036435712 0.036505673 0.018199734 -0.049390852
0002f0 e2 74 6d bd 84 db 34 bc 3f bb 42 bd e2 62 7e bd
       -0.057972796 -0.011038665 -0.047541853 -0.06210602
000300 64 34 f3 3d 8b b0 14 3e 53 10 dd 3c 38 43 4c 3c
       0.11875227 0.14520471 0.026985323 0.012467198
000310 1a 0c 2b 3d d7 4d e7 3c d0 7d 7c 3d ec 5d 86 3d
       0.041759588 0.02823536 0.06164342 0.06560883
000320 ef 2c aa bd 87 0e a5 bc 89 00 03 3e 40 4c 95 3d
       -0.08309352 -0.020148529 0.12793173 0.07289934
000330 c9 3a 94 3c d8 b5 5d bd 03 4a 67 bd 2a 4d bc bd
       0.018094437 -0.054128498 -0.056467067 -0.091944054
000340 24 2e d1 bc 97 b0 5b 3d 49 64 bd 3d 43 d0 96 3d
       -0.025534697 0.053635206 0.092476435 0.073639415
000350 eb 28 be bd 17 e0 6c bd 4c 8c e5 bb 07 18 01 3e
       -0.09285148 -0.057830896 -0.00700525 0.12606822
000360 c7 78 ac 3c 8b 6f fa bc ca 13 55 3d e6 f7 33 bd
       0.021053685 -0.030570766 0.052020825 -0.043937586
000370 c9 ce 98 bd 7e ed c4 3d 67 71 57 bd 10 b8 c4 bc
       -0.07461316 0.096156105 -0.052598383 -0.02401355
000380 89 b5 ff bd f1 cf a1 3d b5 8c b2 3d 80 13 19 3d
       -0.12485797 0.0790099 0.08718244 0.037372112
000390 b0 3c b6 bd 0a ae f6 bd 9e 88 d5 bd ed e8 a7 3d
       -0.08898294 -0.12044914 -0.10426448 0.08198724
0003a0 1a 30 47 3d 60 df b5 3d 08 b9 38 3d 6e 20 93 3c
       0.048629858 0.08880496 0.045098335 0.0179598
0003b0 b0 c2 02 bc 92 c7 c1 bd 67 fd ce bd 8c 9b dd bd
       -0.007980987 -0.09461893 -0.101069264 -0.10820684
0003c0 e9 65 73 3d 20 b5 46 bd 94 ff b2 bb cb d4 4c bd
       0.05942336 -0.048512578 -0.005462596 -0.050007623
0003d0 fd 03 69 ba 60 59 81 bd 49 4f 79 bd c7 aa 71 3d
       -0.0008888839 -0.06315875 -0.060866628 0.059000757
0003e0 89 65 a0 bc 82 6a ae 3d 8e 3b 24 bd fc cc b5 bd
       -0.019579666 0.085164085 -0.04009586 -0.08876988
0003f0 7b 74 6d bc bc 1a 6b bd 1d 57 3b bd 1b 46 0e be
       -0.014493103 -0.057398543 -0.045737375 -0.1389393

batchnorm1.weight f4 [8]
000000 e6 1b 56 3f ac b8 2d 3f 09 43 32 3f 45 3e 25 3f
       0.8363632 0.6785991 0.6963354 0.6454814
000010 b9 52 48 3f fe d9 21 3f 23 23 46 3f 6e 3b 47 3f
       0.78251225 0.63223255 0.77397364 0.7782506

batchnorm1.bias f4 [8]
000000 11 5d e0 36 bf 60 6a 36 0a 8d 2d 36 80 79 82 b6
       6.6865546e-06 3.492503e-06 2.5861104e-06 -3.8884464e-06
000010 38 a6 f4 35 c7 e1 29 b4 33 7f 2f b7 ea 8e 26 b7
       1.8227793e-06 -1.5821489e-07 -1.0460429e-05 -9.927646e-06

batchnorm1.running_mean f4 [8]
000000 c6 1a 02 b8 99 ab 49 3a 3e d9 98 39 c3 36 50 b9
       -3.101935e-05 0.00076931115 0.00029153557 -0.00019856826
000010 4f 15 c2 b8 f2 e3 79 3a 12 c9 8e 39 c6 83 24 39
       -9.25461e-05 0.00095325627 0.0002723416 0.00015689348

batchnorm1.running_var f4 [8]
000000 bc 87 49 3e d6 cf ac 3f 7a d0 bf 3e 20 58 f9 3e
       0.19680685 1.3500926 0.37463742 0.48700047
000010 77 a1 9a 3e a3 8b a2 3f 72 9e c3 3e 71 48 8e 3e
       0.30201313 1.2698864 0.38206822 0.27789643

depthwiseConv.weight f4 [16, 1, 2, 1]
000000 40 ec b5 3e 49 34 c9 be d6 e6 cd be de 4f 17 bf
       0.35531807 -0.39297703 -0.40215176 -0.5910624
000010 5b 3e 2b 3f 82 e3 1b bf 18 98 bf 3e 2a 61 02 be
       0.6689202 -0.60894024 0.37420726 -0.12732378
000020 39 02 65 be fd 0f 84 3e 70 24 c9 bd 20 01 bf 3e
       -0.22364129 0.25793448 -0.09821403 0.37305546
000030 af aa 08 3f 77 ec 15 bf 8c 00 93 3e cc d8 bd 3d
       0.5338544 -0.5856394 0.28711355 0.09269866
000040 9b d6 13 3e aa f1 00 3e b4 0b 04 3d 0e 1d e0 be
       0.14437334 0.12592188 0.032237723 -0.43772167
000050 f2 a4 bf bd 56 79 15 3f c8 fb d7 3e 9b 1f 9d bc
       -0.09357633 0.5838827 0.4218428 -0.01918011
000060 be ad 22 bf 11 b0 0f 3c db db fc be d1 5d 0f 3f
       -0.6354636 0.008770005 -0.49386486 0.5600253
000070 2e 0b b4 be 2d 36 ee bd c9 6e 71 be 93 13 e8 bb
       -0.3516478 -0.11631427 -0.23577417 -0.0070824116

batchnorm2.weight f4 [16]
000000 a8 cf 8a 3f 15 dd 86 3f 14 1f 6a 3f 28 38 7b 3f
       1.0844622 1.0536219 0.9145367 0.9813256
000010 eb e7 6d 3f 28 c3 6b 3f 42 e1 75 3f d3 54 69 3f
       0.92932004 0.9209466 0.9604684 0.91145056
000020 24 3a 8d 3f f7 9c 82 3f b1 3e 7d 3f f6 22 7e 3f
       1.1033368 1.0204152 0.98923784 0.99272096
000030 a6 6a 8a 3f a3 97 88 3f 51 65 8e 3f 63 05 8c 3f
       1.0813797 1.0671276 1.1124669 1.0939144

batchnorm2.bias f4 [16]
000000 3b 03 49 be 7f 84 1c be cb 29 27 3c 32 e3 01 be
       -0.19630139 -0.15284918 0.010202835 -0.12684324
000010 bc 9b f0 3c 97 24 3d bd b2 7e e4 bd 5a 9a 57 bc
       0.029371135 -0.046177473 -0.11156978 -0.013159359
000020 d8 6c 4c be 45 27 20 be 80 99 52 be 16 71 8b bd
       -0.19963396 -0.1563998 -0.20566368 -0.06808679
000030 63 8c b5 bd 0a 85 0b be 5b 89 19 be ea 58 dc bd
       -0.08864667 -0.13624969 -0.14993803 -0.107591465

batchnorm2.running_mean f4 [16]
000000 f8 dc 27 b9 eb 8f 45 b8 66 11 90 b9 18 8c e0 b8
       -0.00016008678 -4.7102494e-05 -0.00027478783 -0.00010707247
000010 d4 fc d1 38 53 d6 ce 38 11 fd 5c b9 45 e8 1f b8
       0.000100129895 9.8627665e-05 -0.0002107511 -3.8124872e-05
000020 02 3f 4c b6 c1 1a c0 b8 87 d2 5d b8 72 ac 0f 38
       -3.0435044e-06 -9.160257e-05 -5.2886575e-05 3.425446e-05
000030 dd fa 90 b8 00 99 02 b9 e3 83 47 b8 d6 a6 4a b8
       -6.913182e-05 -0.00012454763 -4.7568126e-05 -4.831593e-05

batchnorm2.running_var f4 [16]
000000 6b 3e d6 3c a9 bd 1e 3f d8 14 92 3d 99 3f 06 3d
       0.02615281 0.6200815 0.07132882 0.032775495
000010 8f a4 36 3c 26 24 38 3d 82 b0 13 3d d5 f0 72 3d
       0.011147632 0.04495635 0.036057003 0.059311707
000020 11 f9 2b 3d 80 55 b2 3d 07 80 d4 3d a0 68 86 3d
       0.041985575 0.08707714 0.10375982 0.065629244
000030 07 77 84 3e c4 ad 32 3d 56 fb 07 3e be ae 20 3d
       0.2587206 0.043622747 0.13279471 0.039229147

separableConv.weight f4 [16, 16, 1, 16]
000000 b5 31 66 3d 10 6f 90 3b 5c ce 3b 3c 81 29 1c 3d
       0.056199748 0.004407771 0.011462774 0.03812552
000010 5b da 6b 3d df 29 0f 3d 50 e3 37 3d ae 13 74 3d
       0.057581287 0.03495204 0.044894516 0.05958908
000020 db 98 6d 3c 82 f4 18 3d 65 22 b9 3b ef 64 88 3b
       0.014501776 0.037342556 0.005649852 0.004162423
000030 13 80 16 3d 3c 97 0d 3d cc e7 3a 3d b4 67 9b 3d
       0.036743235 0.034568056 0.045631215 0.07588139
000040 0a df cd 3b a2 2d 52 b9 fe 4f f8 bc 39 09 84 bd
       0.006282692 -0.0002004416 -0.03031158 -0.064470716
000050 35 a5 75 bd a9 42 51 bd 4b a7 60 bd e4 cc fc bc
       -0.059972007 -0.051088963 -0.054847043 -0.030859418
000060 24 45 01 bd 71 54 98 bc 59 1f cf 3b 6e a9 0f ba
       -0.03156008 -0.018594952 0.0063208756 -0.0005480264
000070 9f 87 36 3c 67 49 2a 3d 65 f9 6d 3d b8 0f 15 3d
       0.011140733 0.04157391 0.05809917 0.036391944
000080 eb e4 9b bc ad 84 cd 3c 23 ff 62 bc 78 dd 24 bc
       -0.019030055 0.025087679 -0.013854775 -0.010062568
000090 38 94 22 3d bb a3 e0 bc 84 c6 8f 3c d2 66 6a 3d
       0.039692134 -0.027421823 0.017550714 0.057226963
0000a0 82 0f f1 3c b2 5a 0d 3d 44 06 92 bb fe e3 7b 3c
       0.02942634 0.034510322 -0.0044563133 0.015374182
0000b0 d7 b4 8a 3c 7f a6 ce 3c ad 6c fc 3c a1 49 55 3d
       0.016931934 0.025225876 0.03081354 0.05207217
0000c0 7e fa 89 3c 6e 9d 4a 3d 83 82 af 3c a5 3d a6 3b
       0.016843077 0.049466543 0.021424538 0.0050732666
0000d0 e3 d0 fd 3c cd 97 42 bc 7e 6e 59 3d f2 6c b6 3c
       0.030983394 -0.011877012 0.05308389 0.022268746
0000e0 10 7f 4e bc d9 da cc 3c 10 ce 5d bd 28 15 20 bd
       -0.012603536 0.025006698 -0.054151595 -0.039082676
0000f0 da fc 11 bd d5 22 92 bd b3 e3 8d bd fc 10 53 bd
       -0.03564153 -0.0713555 -0.06928196 -0.05152987
000100 e1 7f 66 bb 1d 21 36 3c 85 48 e2 3b 56 0c c4 bc
       -0.0035171437 0.011116293 0.0069056177 -0.023931663
000110 f1 d0 86 bc 7b 9e 63 3d c2 73 24 3d 1a da 11 3d
       -0.016457053 0.05557106 0.040149458 0.03560839
000120 9d a7 62 3d 79 41 ac 3c f7 dd 38 3d 47 08 e8 3d
       0.05533563 0.021027314 0.045133557 0.11329704
000130 ea 5d 8a 3d 85 de 9e 3d 6f a4 03 3d 1d c1 10 3d
       0.06756194 0.07757286 0.032139238 0.035340417
000140 63 43 68 bd 15 f0 a8 bd 7d 4f 53 bd 3c 12 88 bc
       -0.05670489 -0.08248917 -0.051589478 -0.016610257
000150 53 e2 8e bd 53 08 1f bc 04 44 49 bd 75 bc fe bc
       -0.06976762 -0.0097065745 -0.04913713 -0.031095723
000160 57 34 a9 3c 40 17 26 3d 70 5b bb ba f4 8d f7 ba
       0.02065484 0.040549517 -0.0014294218 -0.001888691
000170 ac ce a1 bc 73 52 22 bb ff 51 ca bc fd 3b a3 bb
       -0.01975187 -0.0024768382 -0.024697302 -0.0049815164
000180 6e 36 83 3d b3 ef 4b 3c b4 c2 af 3d 96 9c 94 3d
       0.06406866 0.0124472855 0.085820585 0.07256429
000190 d9 81 8d 3a b9 ba c2 3c 71 6a 6c 3d 72 ce 0c 3d
       0.0010796144 0.023770677 0.057718698 0.03437657
0001a0 d2 9e 0f 3d 3d 9a b4 3c 1d 22 8e 3d ce e4 41 3b
       0.035063572 0.022046203 0.069401 0.002958584
0001b0 7b 0b 7b 3d 22 27 df 3c d0 15 0c 3d c9 6d 81 3d
       0.061290246 0.02724034 0.03420049 0.06319768
0001c0 75 f7 47 bd 13 fe 5f bd 43 7c 00 bd 9e ff 25 3c
       -0.048819978 -0.054685663 -0.031368505 0.010131745
0001d0 57 2d 58 bd ab 60 88 bc 77 22 7c bd e1 3c a2 bb
       -0.052777614 -0.016647657 -0.061556306 -0.004951105
0001e0 59 08 81 bc 53 c6 e2 bc 5b 98 20 bc 4c c6 00 bd
       -0.01575105 -0.027682459 -0.009801949 -0.03143911
0001f0 36 8a 16 bc 21 60 8f bd 90 f8 45 bd f6 85 07 bd
       -0.0091882255 -0.07000757 -0.04833275 -0.03308674
000200 21 80 47 bd 11 02 26 bd e6 ef 6c bd e1 8e 14 bc
       -0.048706178 -0.040529314 -0.057845972 -0.009067268
000210 6f 86 c4 bc aa a7 98 bc 73 93 cb bc 32 12 f7 b9
       -0.023989884 -0.018634636 -0.024850583 -0.00047125068
000220 55 44 da 3c 51 f7 64 3c b8 a4 9c bb bb fa 98 3c
       0.026643911 0.01397498 -0.004780378 0.018674245
000230 72 0c 8f 3b 01 47 0b 3d 9c 59 b1 bb 11 74 50 3c
       0.0043654973 0.03400326 -0.0054122936 0.012722985
000240 46 b9 69 bd 55 9d 33 bd 9d a0 0c bd e4 0d ab bc
       -0.057061456 -0.043851215 -0.03433286 -0.020880647
000250 38 d9 45 bd db 89 ac bb b0 9d aa bc ee 25 49 bb
       -0.04830286 -0.005265457 -0.020827144 -0.0030692774
000260 15 71 87 3b 0c 1f 05 3c 05 d8 0a bd 60 59 c6 3c
       0.0041333535 0.008125078 -0.03389742 0.02421254
000270 d7 8b a7 3c fe ab fc bb d8 9a b3 bb 6d 77 da bc
       0.020452423 -0.0077109328 -0.0054811053 -0.026668275
000280 c9 9b c3 bc 94 ae 9f bd 78 28 01 bd 67 99 1a bd
       -0.023877995 -0.0779697 -0.031532735 -0.037743952
000290 c7 59 a7 bd fa 63 ed bc f0 e9 35 bd 2c db 69 bc
       -0.081714205 -0.028978337 -0.044412553 -0.014273446
0002a0 c1 54 8a bb 5c af 7c bd ae 0f 86 3c 8d b5 6a 3c
       -0.0042215292 -0.061690673 0.016364899 0.014325512
0002b0 f9 32 03 39 5b c8 33 bd 1c 15 9d bc 40 2d 09 bc
       0.00012512122 -0.043892246 -0.019175105 -0.008372605
0002c0 f5 36 0a 3d 53 64 55 3d c8 df 28 3d af 99 5d 3d
       0.033743817 0.05209763 0.04122904 0.054101642
0002d0 27 f0 88 3c 49 bc 43 3d 2f 0b 59 3d 1c 0b 51 3c
       0.016716076 0.047786985 0.05298918 0.012758996
0002e0 f5 1c 41 3c 73 d1 05 3d 4c 75 a1 3d 37 d1 6d 3c
       0.011786689 0.03267045 0.07883701 0.014515213
0002f0 46 91 83 3c cb 4c 88 3d 80 b3 80 3d af 0c 91 3d
       0.016060483 0.06655272 0.06284237 0.07082497
000300 a7 e2 79 bd bc 6d 74 bd 52 ba 77 bc 74 d3 5c 3b
       -0.06100717 -0.059674963 -0.015120106 0.0033695372
000310 77 16 2f bc c0 d4 05 bd 44 5e b2 bc 99 2b 39 3b
       -0.010686508 -0.032673597 -0.021773465 0.0028254746
000320 f6 28 6d bd 65 df 3b bd d7 8a a6 3b 7b 6e 42 bd
       -0.05790039 -0.045867343 0.005082469 -0.047468644
000330 c6 0f 3d bd b0 36 38 bb e4 e2 b3 bc 1e 22 0a bd
       -0.04615762 -0.0028108768 -0.021958776 -0.033723943
000340 75 02 8b 3b 12 c6 72 3c 4c 10 56 3d c2 19 2c bc
       0.0042422363 0.014817731 0.052261636 -0.010504188
000350 05 2a 30 3c 0a ca bc 3c b1 47 8b bc 53 3f 5c 3d
       0.010752206 0.023045558 -0.017001959 0.05377133
000360 48 25 ec 3b ba c9 01 3d 80 c1 13 3d 6c 53 c0 3c
       0.0072065927 0.031686522 0.036073208 0.023477279
000370 bf 70 09 3c 73 53 95 3d 31 eb a2 3d f3 0a 21 3d
       0.008388697 0.07291307 0.079550155 0.039317083
000380 73 50 d8 bd f7 ee 16 bd d9 3b 37 bd 4b b7 39 bd
       -0.105622195 -0.03684899 -0.04473481 -0.045340817
000390 2e b1 58 bd 43 0c 1a bd 56 0e e7 bc f6 99 0e bd
       -0.052903347 -0.03760935 -0.028205078 -0.034814797
0003a0 3e b1 18 bd 0e e4 d6 bc 79 0f c6 bc 5c 84 d6 bc
       -0.037278406 -0.026231792 -0.0241773 -0.02618616
0003b0 31 06 df bb fe b2 a0 bc d1 1c 83 3b 97 5b 60 3c
       -0.006806158 -0.0196166 0.004001238 0.013693712
0003c0 f3 6b 91 bd 78 17 8e bd 6a 30 2b bc 1a 47 b7 bc
       -0.07100668 -0.0693807 -0.0104485545 -0.022372771
0003d0 9c 52 b0 bc ed e8 06 3d a3 07 28 bc 67 d0 c1 3c
       -0.021523766 0.03293698 -0.010255727 0.023658944
0003e0 f2 d1 c0 3c c6 fe 0b bd b4 29 8b 3c c8 33 ec bc
       0.02353761 -0.034178518 0.016987659 -0.028833285
0003f0 f7 98 b7 bb 51 6d 20 3c 3d c5 82 ba a4 55 49 3d
       -0.0056029516 0.009791688 -0.0009976994 0.04915394

batchnorm3.weight f4 [16]
000000 53 87 b9 3f ba ac b4 3f 4d 22 b4 3f d5 c4 a1 3f
       1.4494423 1.4115212 1.4072968 1.2638193
000010 12 e1 b2 3f 62 88 ab 3f 73 ee ac 3f 60 f1 a7 3f
       1.3974936 1.3400996 1.3510269 1.3120537
000020 bc f6 b2 3f c1 92 aa 3f 81 69 b5 3f 9d f5 b2 3f
       1.3981547 1.3326036 1.4172822 1.3981205
000030 51 b2 b4 3f 15 9b b6 3f 6b a6 b3 3f 55 98 b3 3f
       1.4116918 1.4266077 1.4035162 1.4030863

batchnorm3.bias f4 [16]
000000 38 1e 55 3e 8b 95 56 3e d2 d8 64 3e 3a 89 ea bc
       0.20812309 0.20955484 0.22348335 -0.028629888
000010 91 45 68 bd b2 88 51 3e 2a e0 2d 3e ab e7 d1 bc
       -0.05670697 0.20462301 0.16980043 -0.025623163
000020 e8 74 66 bd a1 27 3f bd e0 ad 64 3e 36 15 37 3e
       -0.056263834 -0.046668652 0.22331953 0.17879185
000030 9b b0 0c bc ea 08 ba bc 91 4c 00 bd 7a eb 2a bd
       -0.008587028 -0.022709329 -0.03132302 -0.041728474

batchnorm3.running_mean f4 [16]
000000 f2 3e a2 3d a0 61 69 bd fc 54 a6 bc 8e 33 00 3c
       0.07922162 -0.056977868 -0.020304196 0.007824792
000010 b7 e3 d2 bc aa 40 0d be d5 d3 c1 bb 45 8d 44 bb
       -0.025743349 -0.13794199 -0.005915145 -0.002999143
000020 40 c1 8f 3b d5 f2 91 bc 50 54 a0 bb da 4e f0 3c
       0.004387051 -0.017815987 -0.0048928633 0.029334474
000030 bd 78 75 3c 21 51 03 bc ae 1c d4 bc 61 07 90 bc
       0.0149823995 -0.008014948 -0.025892582 -0.017581644

batchnorm3.running_var f4 [16]
000000 b6 11 4b 3f 1c 30 4b 3f 96 ff 76 3f 7d da 8e 3f
       0.793239 0.79370284 0.96483743 1.1160427
000010 d9 cd a7 3f 92 a3 b9 3f 08 60 b2 3f 28 a5 9b 3f
       1.3109695 1.4503043 1.3935556 1.2159777
000020 52 8a b2 3f 48 e8 9b 3f 24 87 7f 3f 29 aa b7 3f
       1.3948462 1.2180262 0.99815583 1.4348804
000030 a8 43 bd 3f 02 1b a0 3f 52 36 af 3f 25 2a c0 3f
       1.4786272 1.2508242 1.3688452 1.5012861

classify.weight f4 [1, 512]
000000 ef fa 17 3c 0c 56 8f 3b 57 35 04 b9 da fe dc bb
       0.009276136 0.0043742713 -0.00012608372 -0.006744248
000010 d9 af 4a bb 22 d7 3e 3c 67 3e 97 3c b3 60 b1 3c
       -0.0030927567 0.011647971 0.018462373 0.021652555
000020 02 b8 b7 3c 8a b9 82 3c bc 14 ef 3b 14 51 af 3b
       0.022426609 0.015957613 0.007296173 0.0053502414
000030 f8 c3 5b 3c ea 39 95 3c d8 86 8a 3c 01 77 7f 3c
       0.013413422 0.018216092 0.016910002 0.015592338
000040 bd 0d 64 3c dd 18 54 3c b1 84 22 3c a9 d5 db 39
       0.013919291 0.012945381 0.009919331 0.00041930124
000050 d8 47 21 bc c8 bb 41 bc 8a fc 2e bc 61 93 5b bb
       -0.009843789 -0.011824556 -0.010680327 -0.0033504593
000060 f1 3f 07 3c be 4f 50 3c 44 d9 3c 3c fc 6d 84 3b
       0.008254991 0.0127143245 0.01152641 0.0040414315
000070 cc 4c 14 bb 10 3b 12 bc fc d6 67 bc c7 f0 5e bc
       -0.0022628782 -0.008925214 -0.014150377 -0.0136072105
000080 1e 79 0d 3b b2 29 a4 bb 7c 10 e5 b9 15 ae e7 3a
       0.0021587084 -0.0050098533 -0.00043690566 0.0017675782
000090 97 fc 37 3c 95 ce 71 3c ad e6 8f 3c de 91 a4 3c
       0.011229656 0.014758726 0.01756605 0.020089086
0000a0 d1 3d 8d 3c 51 0a 65 3c 09 b0 48 3c a8 ea 63 3c
       0.01724139 0.01397951 0.012249001 0.013910927
0000b0 7d a2 6a 3c 3c a0 7f 3c 37 e0 84 3c a8 45 82 3c
       0.014320967 0.015602168 0.016220195 0.015902355
0000c0 ac db 49 3c 17 84 f7 3b ce 0b f6 3a 59 e5 cf bb
       0.01232044 0.007553588 0.0018771829 -0.006344479
0000d0 59 4c ae bb fc a9 fa bb 69 5b 3f ba fd cb 2b 3b
       -0.00531916 -0.0076496582 -0.0007299693 0.0026214116
0000e0 2b a3 c6 3b 02 68 00 3c f0 18 5d 3a 02 15 fe bb
       0.0060619316 0.007837297 0.0008434197 -0.007753969
0000f0 24 c4 13 bc ef 42 3e bc 51 36 25 bc cf a3 46 bc
       -0.009018932 -0.011612638 -0.010083751 -0.012124016
000100 66 66 98 3b 52 e5 29 bb e4 f3 0c bb 2e 19 00 bb
       0.0046508787 -0.002592404 -0.0021507675 -0.0019546258
000110 5f 3e 04 3c f6 66 57 3c 7a 7e 80 3c 95 39 a9 3c
       0.008071511 0.013147106 0.015685309 0.02065734
000120 dc 8f 9c 3c f1 7a 4f 3c 31 b7 14 3c 8f 1e 64 3c
       0.019111566 0.012663589 0.009076879 0.013923301
000130 1b 59 85 3c 73 30 97 3c 39 46 9e 3c 76 c5 73 3c
       0.01627784 0.01845572 0.019320594 0.014878621
000140 41 de 61 3c 37 f5 1a 3c 9e d8 56 3b 25 ad 46 bb
       0.0137859 0.009457878 0.0032782922 -0.0030315605
000150 e8 52 0d bc 05 b7 dd bb 89 87 0a bb fb 9a 14 3b
       -0.008625723 -0.0067662024 -0.0021137914 0.0022675383
000160 00 e4 0e 3c 68 3f 02 3c fd b5 35 3b 03 47 7a bb
       0.008721352 0.007949688 0.0027726882 -0.00381893
000170 ec 51 03 bc fc c6 28 bc bc 49 3d bc 60 55 4a bc
       -0.008015137 -0.010301348 -0.011553224 -0.012349457
000180 bf 2c 35 bc 79 23 cd bb 38 bf 78 bb ef b0 69 bb
       -0.011058032 -0.006260332 -0.0037955772 -0.003565844
000190 fe 41 09 bc d6 a7 76 bc 98 5a 86 bc 4e b0 85 bc
       -0.00837755 -0.015054664 -0.01640062 -0.01631942
0001a0 95 68 81 bc 04 72 66 bc ef ad 5f bc bd b7 4a bc
       -0.015796939 -0.014065269 -0.013652309 -0.012372908
0001b0 60 f7 6c bc 6d e0 77 bc 7e 5c 35 bc 4a f9 0f bc
       -0.014463276 -0.015129191 -0.011069415 -0.0087874625
0001c0 af 71 07 bc 18 9d ee bb c2 48 d1 bb 1f f0 31 bb
       -0.00826685 -0.0072819106 -0.0063868472 -0.002715118
0001d0 81 31 9c 3b 7d 0e 16 3c 9e d8 1f 3c fb 69 75 3b
       0.0047666435 0.009158728 0.009756235 0.0037447202
0001e0 57 2c e3 3b ac d7 b2 3b e2 b0 25 3b 7f 6e 94 ba
       0.006932776 0.005457839 0.0025282432 -0.0011324434
0001f0 27 7a 1d bb d4 62 c3 3b c1 c8 37 3c a4 1c 6a 3c
       -0.0024029107 0.005962709 0.011217297 0.014289055
000200 bb 9b 35 bc f2 62 f5 bb 54 f3 83 bb 72 c0 74 bb
       -0.011084492 -0.007488602 -0.0040268097 -0.0037346152
000210 67 26 03 bc 8a 39 9a bc b0 77 a9 bc 6c 79 a9 bc
       -0.008004761 -0.018826265 -0.020686954 -0.020687781
000220 dd 7c 8f bc bf 89 80 bc 1d 05 82 bc c6 fb 88 bc
       -0.017515594 -0.015690682 -0.015871579 -0.016721617
000230 e3 6a 8b bc 13 9f 88 bc eb 51 67 bc f7 d7 2f bc
       -0.017018741 -0.016677415 -0.014118652 -0.010732642
000240 78 ba 22 bc f3 50 1f bc 41 6a bf bb cb 80 34 bb
       -0.009932153 -0.00972389 -0.005841524 -0.0027542587
000250 23 5c 01 3b 02 93 e3 3b 61 b7 c1 3b 44 a5 4e 3b
       0.0019738756 0.006945015 0.005911753 0.0031531611
000260 77 4e cc 3b 6c 0e 93 3b ea d8 5c 3b 08 f2 26 39
       0.0062349397 0.004487803 0.0033698627 0.00015921157
000270 ee f8 bc 39 5e 42 87 3b 83 09 51 3c cc f8 3d 3c
       0.0003604362 0.0041277846 0.012758615 0.011594962
000280 f7 2d 6d 3b 59 52 91 3b 8f 2d 0d 3c 17 df 1b 3c
       0.0036190727 0.0044348654 0.008616819 0.009513638
000290 78 90 3a 3c 6b 5a 2e 3c 94 02 4d b8 c0 6b f4 b9
       0.011386983 0.0106416745 -4.887821e-05 -0.00046619587
0002a0 1a 56 8d 3b 4b a8 d8 3b 0b df c3 3b ef 2c b3 3b
       0.0043132426 0.006611859 0.0059775165 0.005468003
0002b0 83 20 d3 ba 9f 1e 97 bb b6 83 c2 b9 17 9e 0b 3b
       -0.0016107712 -0.0046118046 -0.00037100696 0.0021303946
0002c0 9e 11 dc 3b 8d b2 94 3b c6 d0 29 3c 82 d7 64 3c
       0.0067159673 0.0045378865 0.010364717 0.013967397
0002d0 c7 90 7d 3c 9e eb 0e 3c 47 19 ff 3b c2 f5 13 3b
       0.015476412 0.008723168 0.0077849957 0.0022576903
0002e0 ce 00 54 3a a2 f1 38 3c 7d fe 61 3c 93 ba 77 3c
       0.0008087278 0.0112880785 0.013793585 0.015120166
0002f0 39 e4 40 3c b9 13 1e 3c 06 09 11 3c 4c 29 23 3c
       0.0117731625 0.009648257 0.008852249 0.009958576
000300 05 2d 89 3b 09 0c 5f ba e2 25 0e bb 84 53 0d 39
       0.004186275 -0.0008508568 -0.002169006 0.0001347792
000310 2a 63 d7 3b f4 54 4c 3c a6 c1 76 3c 5f 0f 85 3c
       0.0065731006 0.012471426 0.015060818 0.016242681
000320 11 a8 91 3c d8 64 82 3c 78 91 4c 3c 75 82 5f 3c
       0.017780336 0.015917227 0.012485854 0.013641943
000330 f4 51 7a 3c 1b 03 76 3c 62 95 81 3c 0a 48 8c 3c
       0.015278328 0.015015389 0.015818302 0.017124195
000340 45 13 71 3c 8b 44 09 3c 62 17 69 3b 83 ef 26 ba
       0.014714067 0.008378158 0.0035566916 -0.00063680875
000350 75 6c 61 bb 0a 69 f1 bb ae d1 c0 bb 0f 33 d0 b7
       -0.003439692 -0.007367258 -0.0058843708 -2.4819308e-05
000360 9b 61 6f 39 b2 b0 e7 3b 0a 68 b8 3b 28 10 b2 b9
       0.00022829177 0.0070706243 0.005627637 -0.00033962843
000370 60 8d ce bb 61 57 30 bc 57 78 3b bc e9 b0 28 bc
       -0.0063034743 -0.01076302 -0.0114422655 -0.010296085
000380 44 0f 30 bc 1e 90 ca bb 19 86 a1 bb 0f 3a b8 bb
       -0.010745827 -0.006181731 -0.0049293158 -0.0056221555
000390 b4 00 08 bc f9 5c 79 bc 07 3a 8e bc 81 81 9a bc
       -0.008300949 -0.01521992 -0.017361654 -0.01886058
0003a0 2f 27 81 bc 16 c4 5c bc 05 c3 4b bc 66 a9 5f bc
       -0.015765755 -0.013474485 -0.012436633 -0.013651228
0003b0 54 25 58 bc 58 5c 65 bc 3b 12 53 bc 00 89 42 bc
       -0.0131924935 -0.013999067 -0.012882764 -0.011873484
0003c0 8c f4 17 bc 12 86 01 bc 15 22 e1 bb 76 95 8e bb
       -0.009274613 -0.0079055 -0.006870518 -0.004351313
0003d0 ad dd 80 3b 76 4a 03 3c 94 68 f1 3b 6f c2 5b 3b
       0.003932676 0.008013358 0.007367203 0.003353264
0003e0 0a 12 d7 3b ea 05 95 3b 78 1d 3f 3b c9 47 27 ba
       0.0065634297 0.004547824 0.0029161852 -0.0006381241
0003f0 4f 65 69 ba 8a 59 b6 3b 7c d9 4c 3c 86 77 50 3c
       -0.0008903341 0.005564873 0.012503024 0.012723809
