decoder/best_fists_eegnet_model.pth (torch, 28250 bytes, 16 tensors)

firstconv.weight f4 [8, 1, 1, 64]
0.12350627 0.122943506 -0.015966875 0.12164162 -0.02364523 0.026045755 -0.06937196 0.058109768
0.0907727 -0.119188845 0.08074269 -0.002197297 0.062510885 -0.017538007 0.02549449 -0.049603913
0.06297209 -0.017029513 -0.092777476 -0.003917416 -0.09275748 -0.044490855 -0.07503996 0.057849012
-0.12336937 -0.07935764 -0.058243725 -0.10150872 -0.016117828 -0.14982273 0.08513683 -0.1314532
0.07391978 -5.5404334e-06 -0.057516895 0.059214402 -0.0026501096 0.083892405 0.0033951001 -0.051005736
0.02540933 -0.03925603 0.045965575 0.1082931 0.07007673 -0.05617693 0.07241424 0.026890818
0.07330582 -0.065038696 -0.11060019 -0.03213419 -0.08468236 0.109527744 0.04224384 0.059867848
0.049460668 0.0050758314 0.10658426 -0.07895035 0.017996676 -0.07402213 0.048344683 -0.031613395
0.0050650295 -0.059286714 0.07143749 -0.100777395 -0.10046118 -0.09633678 0.0915101 0.031405378
0.109599456 -0.11167736 -0.12586127 -0.10009248 -0.09183421 0.042206984 0.038428593 0.095871665
-0.06924444 -0.088068426 0.058147963 -0.05550633 0.069652796 -0.03189443 0.06560263 -0.10124624
-0.07243143 0.034842186 0.025671 -0.04128977 0.064721204 0.07986106 -0.10341802 -0.07779926
0.11178472 -0.039484575 -0.039863616 -0.10647544 -0.053803995 0.055165477 0.0002708116 -0.067265406
0.03076079 -0.07814764 -0.10506279 -0.039651826 -0.07137942 -0.042643018 0.14623989 0.033905577
0.045070272 -0.10181231 -0.06775422 -0.020279262 0.03491374 -0.09703675 -0.04441686 -0.06656949
0.007646408 -0.030649811 0.009499138 -0.07053679 -0.08185503 -0.065670185 -0.037384737 -0.095733546
0.11513072 -0.016634298 0.11473424 0.046253018 -0.09898629 0.09357795 -0.025691073 -0.038697533
-0.09479038 -0.11844309 0.03800575 -0.026740305 0.047077198 -0.10443496 0.08927354 -0.09685664
-0.028855763 0.017136665 0.05285908 0.087342106 0.09916275 -0.11288205 0.019863956 -0.065537855
-0.028404346 -0.10876878 0.09592079 -0.11267022 0.04257085 0.020180026 0.014808897 -0.09187371
0.09129691 0.007675957 -0.0042396937 -0.12654324 0.04187883 -0.026972618 -0.06666761 0.0994552
0.020830583 -0.076962 -0.07169138 -0.012147682 0.065463 -0.03679072 -0.0748062 -0.046392206
-0.099811584 0.034386247 0.08334413 -0.13552445 0.0072906194 0.04174092 -0.005961553 -0.07441058
0.036435697 0.03650567 0.018199727 -0.049390845 -0.0579728 -0.011038673 -0.047541875 -0.06210603
0.118752256 0.14520475 0.026985308 0.012467196 0.04175957 0.02823538 0.06164343 0.065608814
-0.0830935 -0.020148518 0.12793174 0.07289933 0.018094435 -0.05412849 -0.05646706 -0.09194406
-0.025534688 0.053635184 0.092476435 0.07363942 -0.09285145 -0.057830874 -0.0070052715 0.12606822
0.021053707 -0.030570794 0.05202084 -0.04393758 -0.07461315 0.096156135 -0.052598394 -0.024013551
-0.12485798 0.07900987 0.08718244 0.03737212 -0.08898294 -0.120449096 -0.104264505 0.08198722
0.048629895 0.08880496 0.04509833 0.0179598 -0.007981017 -0.09461896 -0.10106931 -0.108206846
0.059423376 -0.048512645 -0.005462552 -0.05000758 -0.0008888786 -0.06315872 -0.0608667 0.059000745
-0.01957973 0.08516411 -0.040095884 -0.088769905 -0.0144931795 -0.057398606 -0.04573738 -0.13893929
00000000: dbf0 fc3d cec9 fb3d f7cc 82bc 3e1f f93d
00000010: a4b3 c1bc e85d d53c e312 8ebd 8204 6e3d
00000020: 0ae7 b93d 4819 f4bd 6c5c a53d 8700 10bb
00000030: b505 803d deab 8fbc d2d9 d03c 792d 4bbd
00000040: 83f7 803d 7a81 8bbc 1e02 bebd ab5d 80bb
00000050: a2f7 bdbd 0b3c 36bd 8dae 99bd 16f3 6c3d
00000060: 15a9 fcbd 4286 a2bd f990 6ebd cee3 cfbd
00000070: 8909 84bc 216b 19be 385c ae3d ab9b 06be
00000080: 4163 973d f6e7 b9b6 d696 6bbd cd8a 723d
00000090: 76ad 2dbb c8cf ab3d 5480 5e3b 64eb 50bd
000000a0: 3a27 d03c eeca 20bd 6646 3c3d c6c8 dd3d
000000b0: 6384 8f3d c819 66bd eb4d 943d 224a dc3c
000000c0: 5d21 963d 0233 85bd 5a82 e2bd 249f 03bd
000000d0: f26d adbd 1550 e03d e007 2d3d fd37 753d
000000e0: 4597 4a3d 2953 a63b d948 da3d b9b0 a1bd
000000f0: c46d 933c ea98 97bd 1305 463d 0c7d 01bd
00000100: 8cf8 a53b a0d6 72bd d24d 923d 6164 cebd
00000110: 97be cdbd 384c c5bd a669 bb3d eda2 003d
00000120: ae75 e03d 1ab7 e4bd c7e1 00be 49fd ccbd
00000130: 9313 bcbd 3be1 2c3d 4d67 1d3d 5d58 c43d
00000140: 07d0 8dbd 385d b4bd 8f2c 6e3d 9b5a 63bd
00000150: 20a6 8e3d bca3 02bd ac5a 863d 305a cfbd
00000160: ee56 94bd aeb6 0e3d fd4b d23c 761f 29bd
00000170: 8d8c 843d 328e a33d d4cc d3bd 3855 9fbd
00000180: 63ef e43d 94ba 21bd 0848 23bd cc0f dabd
00000190: 9461 5cbd 32f5 613d b8fb 8d39 72c2 89bd
000001a0: 0dfe fb3c df0b a0bd 292b d7bd f469 22bd
000001b0: 602f 92bd 72aa 2ebd e9bf 153e 93e0 0a3d
000001c0: 9b9b 383d f982 d0bd b9c2 8abd b220 a6bc
000001d0: b601 0f3d 34bb c6bd 74ee 35bd 9655 88bd
000001e0: b88e fa3b 5015 fbbc 46a2 1b3c 9875 90bd
000001f0: 9ca3 a7bd 177e 86bd bd20 19bd f30f c4bd
00000200: a8c9 eb3d a744 88bc c9f9 ea3d ce73 3d3d
00000210: 53b9 cabd cca5 bf3d 1676 d2bc 4e81 1ebd
00000220: 7521 c2bd 4a92 f2bd ebab 1b3d 7c0e dbbc
00000230: 05d4 403d ffe1 d5bd 0cd5 b63d c65c c6bd
00000240: ec62 ecbc 3162 8c3c c382 583d 6be0 b23d
00000250: d715 cb3d b42e e7bd bcb9 a23c b638 86bd
00000260: 3bb0 e8bc 2bc2 debd 1f72 c43d a5bf e6bd
00000270: c65e 2e3d 9550 a53c 04a1 723c 4928 bcbd
00000280: e0f9 ba3d 9886 fb3b 21ed 8abb 8d94 01be
00000290: 2389 2b3d aef5 dcbc 0789 88bd 2baf cb3d
000002a0: e6a4 aa3c 419e 9dbd eed2 92bd 1207 47bc
000002b0: 7711 863d deb1 16bd fe33 99bd c105 3ebd
000002c0: 046a ccbd 98d8 0c3d 54b0 aa3d ecc6 0abe
000002d0: 26e6 ee3b 87f8 2a3d 2259 c3bb 9364 98bd
000002e0: 993d 153d f886 153d 9817 953c 0e4e 4abd
000002f0: e374 6dbd 8ddb 34bc 45bb 42bd e462 7ebd
00000300: 6234 f33d 8eb0 143e 4b10 dd3c 3643 4c3c
00000310: 150c 2b3d e24d e73c d27d 7c3d ea5d 863d
00000320: ed2c aabd 810e a5bc 8a00 033e 3e4c 953d
00000330: c83a 943c d6b5 5dbd 014a 67bd 2b4d bcbd
00000340: 1f2e d1bc 91b0 5b3d 4964 bd3d 44d0 963d
00000350: e728 bebd 11e0 6cbd 7a8c e5bb 0718 013e
00000360: d378 ac3c 9a6f fabc ce13 553d e4f7 33bd
00000370: c7ce 98bd 82ed c43d 6a71 57bd 11b8 c4bc
00000380: 8ab5 ffbd edcf a13d b58c b23d 8213 193d
00000390: b03c b6bd 04ae f6bd a188 d5bd eae8 a73d
000003a0: 2430 473d 60df b53d 07b9 383d 6e20 933c
000003b0: d0c2 02bc 96c7 c1bd 6dfd cebd 8d9b ddbd
000003c0: ed65 733d 32b5 46bd 35ff b2bb c0d4 4cbd
000003d0: a203 69ba 5c59 81bd 5c4f 79bd c4aa 713d
000003e0: ac65 a0bc 856a ae3d 953b 24bd ffcc b5bd
000003f0: cd74 6dbc cd1a 6bbd 1e57 3bbd 1a46 0ebe

batchnorm1.weight f4 [8]
0.8363635 0.6785986 0.69633543 0.6454815 0.7825118 0.6322327 0.77397317 0.7782506
00000000: eb1b 563f a3b8 2d3f 0a43 323f 473e 253f
00000010: b152 483f 01da 213f 1b23 463f 6e3b 473f

batchnorm1.bias f4 [8]
1.7448907e-05 7.736276e-06 1.2979707e-06 -2.6406403e-06 2.980928e-06 6.678874e-06 1.2418104e-06 -9.96071e-07
00000000: 3e5f 9237 0dcb 0137 ef35 ae35 db35 31b6
00000010: f40b 4836 171b e036 48ac a635 bdb0 85b5

batchnorm1.running_mean f4 [8]
-3.1019103e-05 0.0007693117 0.0002915361 -0.00019856736 -9.254675e-05 0.0009532558 0.00027234032 0.00015689313
00000000: 821a 02b8 a2ab 493a 50d9 9839 8536 50b9
00000010: a815 c2b8 eae3 793a e6c8 8e39 ae83 2439

batchnorm1.running_var f4 [8]
0.19680682 1.3500926 0.3746379 0.4870006 0.30201313 1.2698865 0.38206822 0.27789643
00000000: ba87 493e d6cf ac3f 8ad0 bf3e 2558 f93e
00000010: 77a1 9a3e a48b a23f 729e c33e 7148 8e3e

depthwiseConv.weight f4 [16, 1, 2, 1]
0.3553181 -0.39297706 -0.40215167 -0.5910625 0.66892016 -0.6089404 0.37420723 -0.1273238
-0.22364134 0.25793442 -0.09821406 0.3730555 0.5338544 -0.58563936 0.2871136 0.0926987
0.14437345 0.12592188 0.03223772 -0.4377217 -0.09357632 0.5838828 0.42184284 -0.019180119
-0.6354635 0.008770026 -0.49386483 0.5600252 -0.35164768 -0.11631424 -0.23577426 -0.0070824097
00000000: 41ec b53e 4a34 c9be d3e6 cdbe df4f 17bf
00000010: 5a3e 2b3f 85e3 1bbf 1798 bf3e 2c61 02be
00000020: 3c02 65be fb0f 843e 7424 c9bd 2101 bf3e
00000030: afaa 083f 76ec 15bf 8e00 933e d1d8 bd3d
00000040: a2d6 133e aaf1 003e b30b 043d 0f1d e0be
00000050: f1a4 bfbd 5879 153f c9fb d73e a01f 9dbc
00000060: bcad 22bf 28b0 0f3c dadb fcbe d05d 0f3f
00000070: 2a0b b4be 2936 eebd cf6e 71be 8f13 e8bb

batchnorm2.weight f4 [16]
1.0844622 1.053622 0.9145367 0.98132575 0.92932016 0.9209466 0.9604684 0.9114505
1.1033368 1.0204152 0.9892378 0.99272096 1.0813797 1.0671276 1.1124669 1.0939144
00000000: a8cf 8a3f 16dd 863f 141f 6a3f 2a38 7b3f
00000010: ede7 6d3f 28c3 6b3f 42e1 753f d254 693f
00000020: 243a 8d3f f79c 823f b03e 7d3f f622 7e3f
00000030: a66a 8a3f a397 883f 5165 8e3f 6305 8c3f

batchnorm2.bias f4 [16]
-0.19630146 -0.15284918 0.010202796 -0.12684327 0.029371083 -0.046177536 -0.111569785 -0.013159321
-0.19963393 -0.15639985 -0.2056637 -0.06808678 -0.088646635 -0.13624972 -0.14993809 -0.10759147
00000000: 4003 49be 7f84 1cbe a129 273c 34e3 01be
00000010: a09b f03c a824 3dbd b37e e4bd 319a 57bc
00000020: d66c 4cbe 4827 20be 8199 52be 1571 8bbd
00000030: 5e8c b5bd 0c85 0bbe 5f89 19be eb58 dcbd

batchnorm2.running_mean f4 [16]
-0.00016049326 -5.782445e-05 -0.00027452875 -0.00010600563 0.00010008469 9.826576e-05 -0.00021081636 -3.7646e-05
-2.7472238e-06 -9.204736e-05 -4.9504964e-05 3.7030888e-05 -7.64985e-05 -0.00012376996 -5.1730403e-05 -5.0476025e-05
00000000: 154a 28b9 8888 72b8 a0ee 8fb9 574f deb8
00000010: 8fe4 d138 0714 ce38 960e 5db9 16e6 1db8
00000020: f25c 38b6 8d09 c1b8 8da3 4fb8 9d51 1b38
00000030: d26d a0b8 3fc8 01b9 19f9 58b8 38b6 53b8

batchnorm2.running_var f4 [16]
0.026152834 0.6200821 0.07132873 0.03277543 0.01114763 0.044956356 0.036057018 0.05931176
0.041985556 0.08707705 0.10375995 0.06562927 0.25872034 0.043622695 0.13279465 0.039229162
00000000: 783e d63c b3bd 1e3f cc14 923d 873f 063d
00000010: 8da4 363c 2824 383d 86b0 133d e3f0 723d
00000020: 0cf9 2b3d 7455 b23d 1980 d43d a468 863d
00000030: fe76 843e b6ad 323d 52fb 073e c2ae 203d

separableConv.weight f4 [16, 16, 1, 16]
0.05619972 0.0044077598 0.011462756 0.038125493 0.0575813 0.034952052 0.04489452 0.059589088
0.01450178 0.03734257 0.0056498577 0.004162442 0.03674325 0.034568064 0.04563121 0.07588138
0.0062826686 -0.00020046021 -0.0303116 -0.06447073 -0.05997201 -0.051088944 -0.054847036 -0.030859414
-0.03156006 -0.01859494 0.006320897 -0.0005480129 0.011140746 0.04157392 0.058099177 0.036391966
-0.019030092 0.025087615 -0.013854806 -0.010062587 0.039692122 -0.027421843 0.017550683 0.05722691
0.029426333 0.034510303 -0.004456325 0.015374171 0.016931925 0.025225881 0.030813536 0.052072182
0.016843097 0.049466558 0.02142455 0.0050732805 0.030983409 -0.011877004 0.053083908 0.022268765
-0.012603525 0.02500672 -0.05415157 -0.039082658 -0.03564153 -0.071355484 -0.06928194 -0.051529862
-0.0035171357 0.011116311 0.00690563 -0.023931656 -0.016457044 0.055571087 0.04014949 0.035608396
0.05533566 0.02102736 0.045133587 0.11329705 0.067562 0.07757289 0.032139275 0.03534046
-0.05670489 -0.0824892 -0.05158948 -0.016610278 -0.06976763 -0.00970657 -0.049137134 -0.031095723
0.020654835 0.040549498 -0.0014294211 -0.0018887079 -0.019751871 -0.0024768366 -0.024697294 -0.004981511
0.064068675 0.01244729 0.085820615 0.0725643 0.0010796206 0.02377067 0.0577187 0.03437658
0.035063595 0.022046199 0.069400996 0.0029585967 0.061290238 0.027240328 0.034200486 0.06319765
-0.04881996 -0.054685652 -0.031368494 0.010131747 -0.052777603 -0.016647661 -0.061556302 -0.0049511055
-0.015751055 -0.027682455 -0.009801957 -0.031439114 -0.00918822 -0.07000758 -0.04833273 -0.03308675
-0.048706204 -0.040529314 -0.057845972 -0.009067274 -0.023989892 -0.018634634 -0.024850579 -0.00047124486
0.026643924 0.013974978 -0.004780366 0.018674254 0.004365507 0.034003284 -0.0054122815 0.012722994
-0.057061467 -0.043851227 -0.034332875 -0.020880656 -0.048302848 -0.005265458 -0.020827137 -0.0030692741
0.004133361 0.008125095 -0.033897415 0.024212547 0.020452427 -0.007710914 -0.0054810834 -0.026668254
-0.023877993 -0.077969685 -0.031532753 -0.03774396 -0.08171419 -0.028978337 -0.044412553 -0.014273452
-0.004221544 -0.06169067 0.016364878 0.014325496 0.00012511994 -0.04389224 -0.019175114 -0.008372606
0.033743825 0.05209761 0.041229025 0.05410165 0.016716084 0.047786977 0.052989177 0.012759006
0.011786686 0.032670453 0.07883701 0.014515213 0.016060483 0.066552706 0.06284236 0.070824966
-0.06100714 -0.05967497 -0.015120105 0.003369538 -0.010686504 -0.032673568 -0.021773452 0.002825479
-0.057900377 -0.04586733 0.0050824713 -0.047468632 -0.046157602 -0.002810858 -0.021958757 -0.033723902
0.0042422316 0.014817722 0.052261617 -0.010504191 0.010752196 0.023045553 -0.017001946 0.05377133
0.0072066006 0.03168654 0.03607322 0.023477282 0.008388697 0.07291309 0.07955014 0.03931708
-0.10562218 -0.03684899 -0.044734813 -0.045340814 -0.052903306 -0.03760934 -0.028205069 -0.034814797
-0.037278384 -0.026231764 -0.024177274 -0.02618615 -0.0068061436 -0.019616593 0.0040012477 0.013693724
-0.071006685 -0.069380686 -0.010448554 -0.022372765 -0.021523759 0.032936968 -0.010255721 0.023658946
0.023537623 -0.03417849 0.016987674 -0.028833274 -0.0056029297 0.0097916955 -0.0009976848 0.04915394
00000000: ad31 663d f86e 903b 49ce 3b3c 7a29 1c3d
00000010: 5fda 6b3d e229 0f3d 51e3 373d b013 743d
00000020: e098 6d3c 86f4 183d 7122 b93b 1865 883b
00000030: 1780 163d 3e97 0d3d cbe7 3a3d b267 9b3d
00000040: d8de cd3b a132 52b9 0850 f8bc 3b09 84bd
00000050: 36a5 75bd a442 51bd 49a7 60bd e2cc fcbc
00000060: 1f45 01bd 6a54 98bc 871f cf3b 86a8 0fba
00000070: ad87 363c 6a49 2a3d 67f9 6d3d be0f 153d
00000080: ffe4 9bbc 8b84 cd3c 45ff 62bc 8ddd 24bc
00000090: 3594 223d c6a3 e0bc 73c6 8f3c c466 6a3d
000000a0: 7e0f f13c ad5a 0d3d 5d06 92bb f2e3 7b3c
000000b0: d2b4 8a3c 82a6 ce3c ab6c fc3c a449 553d
000000c0: 89fa 893c 729d 4a3d 8a82 af3c c33d a63b
000000d0: ebd0 fd3c c497 42bc 836e 593d fc6c b63c
000000e0: 047f 4ebc e5da cc3c 09ce 5dbd 2315 20bd
000000f0: dafc 11bd d322 92bd b1e3 8dbd fa10 53bd
00000100: bf7f 66bb 3021 363c a048 e23b 520c c4bc
00000110: ecd0 86bc 829e 633d cb73 243d 1cda 113d
00000120: a5a7 623d 9241 ac3c ffdd 383d 4908 e83d
00000130: f25d 8a3d 89de 9e3d 79a4 033d 28c1 103d
00000140: 6343 68bd 19f0 a8bd 7e4f 53bd 4712 88bc
00000150: 55e2 8ebd 4e08 1fbc 0544 49bd 75bc febc
00000160: 5434 a93c 3b17 263d 6a5b bbba 858e f7ba
00000170: adce a1bc 6c52 22bb fb51 cabc f13b a3bb
00000180: 7036 833d b8ef 4b3c b8c2 af3d 979c 943d
00000190: 0e82 8d3a b5ba c23c 726a 6c3d 75ce 0c3d
000001a0: d89e 0f3d 3b9a b43c 1c22 8e3d 04e5 413b
000001b0: 790b 7b3d 1c27 df3c cf15 0c3d c56d 813d
000001c0: 70f7 47bd 10fe 5fbd 407c 00bd a1ff 253c
000001d0: 542d 58bd ad60 88bc 7622 7cbd e23c a2bb
000001e0: 5b08 81bc 51c6 e2bc 6398 20bc 4dc6 00bd
000001f0: 308a 16bc 2260 8fbd 8af8 45bd f985 07bd
00000200: 2880 47bd 1102 26bd e6ef 6cbd e78e 14bc
00000210: 7386 c4bc a9a7 98bc 7193 cbbc 6a11 f7b9
00000220: 5c44 da3c 4ef7 643c 9ea4 9cbb c0fa 983c
00000230: 870c 8f3b 0747 0b3d 8259 b1bb 1b74 503c
00000240: 49b9 69bd 589d 33bd a1a0 0cbd e90d abbc
00000250: 35d9 45bd dd89 acbb ac9d aabc e025 49bb
00000260: 2571 873b 1e1f 053c 04d8 0abd 6459 c63c
00000270: d98b a73c d6ab fcbb a99a b3bb 6277 dabc
00000280: c89b c3bc 92ae 9fbd 7d28 01bd 6999 1abd
00000290: c559 a7bd fa63 edbc f0e9 35bd 32db 69bc
000002a0: e154 8abb 5baf 7cbd a30f 863c 7cb5 6a3c
000002b0: a132 0339 59c8 33bd 2115 9dbc 412d 09bc
000002c0: f736 0a3d 4e64 553d c4df 283d b199 5d3d
000002d0: 2bf0 883c 47bc 433d 2e0b 593d 260b 513c
000002e0: f21c 413c 74d1 053d 4c75 a13d 37d1 6d3c
000002f0: 4691 833c c94c 883d 7fb3 803d ae0c 913d
00000300: 9fe2 79bd be6d 74bd 51ba 77bc 78d3 5c3b
00000310: 7216 2fbc b8d4 05bd 3d5e b2bc ac2b 393b
00000320: f228 6dbd 62df 3bbd dc8a a63b 786e 42bd
00000330: c10f 3dbd 5f36 38bb dae2 b3bc 1322 0abd
00000340: 6b02 8b3b 08c6 723c 4710 563d c519 2cbc
00000350: fb29 303c 07ca bc3c aa47 8bbc 533f 5c3d
00000360: 5925 ec3b bfc9 013d 83c1 133d 6e53 c03c
00000370: bf70 093c 7553 953d 2feb a23d f20a 213d
00000380: 7150 d8bd f7ee 16bd da3b 37bd 4ab7 39bd
00000390: 23b1 58bd 400c 1abd 510e e7bc f699 0ebd
000003a0: 38b1 18bd ffe3 d6bc 6b0f c6bc 5684 d6bc
000003b0: 1206 dfbb fab2 a0bc e61c 833b a45b 603c
000003c0: f46b 91bd 7617 8ebd 6930 2bbc 1747 b7bc
000003d0: 9852 b0bc eae8 063d 9d07 28bc 68d0 c13c
000003e0: f9d1 c03c bffe 0bbd bc29 8b3c c233 ecbc
000003f0: c898 b7bb 596d 203c bfc4 82ba a455 493d

batchnorm3.weight f4 [16]
1.4494423 1.4115212 1.4072968 1.2638193 1.3974936 1.3400996 1.3510269 1.3120538
1.3981547 1.3326037 1.4172826 1.3981205 1.4116918 1.4266078 1.4035162 1.4030863
00000000: 5387 b93f baac b43f 4d22 b43f d5c4 a13f
00000010: 12e1 b23f 6288 ab3f 73ee ac3f 61f1 a73f
00000020: bcf6 b23f c292 aa3f 8469 b53f 9df5 b23f
00000030: 51b2 b43f 169b b63f 6ba6 b33f 5598 b33f

batchnorm3.bias f4 [16]
0.20812312 0.20955487 0.22348341 -0.028629888 -0.05670699 0.20462304 0.16980045 -0.025623163
-0.056263834 -0.04666864 0.2233196 0.1787919 -0.008587013 -0.022709299 -0.031323027 -0.04172847
00000000: 3a1e 553e 8d95 563e d6d8 643e 3a89 eabc
00000010: 9745 68bd b488 513e 2be0 2d3e abe7 d1bc
00000020: e874 66bd 9e27 3fbd e5ad 643e 3915 373e
00000030: 8bb0 0cbc da08 babc 934c 00bd 79eb 2abd

batchnorm3.running_mean f4 [16]
0.07922166 -0.056977917 -0.020304244 0.007824839 -0.025743285 -0.13794199 -0.0059151985 -0.0029990932
0.004387096 -0.01781594 -0.0048929323 0.029334469 0.014982484 -0.0080148885 -0.025892504 -0.01758158
00000000: f73e a23d ad61 69bd 1655 a6bc c133 003c
00000010: 95e3 d2bc aa40 0dbe 48d4 c1bb 6f8c 44bb
00000020: a1c1 8f3b bcf2 91bc e454 a0bb d74e f03c
00000030: 1879 753c e150 03bc 841c d4bc 3f07 90bc

batchnorm3.running_var f4 [16]
0.7932387 0.7937028 0.9648372 1.1160427 1.3109694 1.4503044 1.393556 1.2159777
1.3948462 1.2180264 0.99815553 1.4348801 1.4786272 1.2508242 1.3688455 1.5012865
00000000: b111 4b3f 1b30 4b3f 92ff 763f 7dda 8e3f
00000010: d8cd a73f 93a3 b93f 0b60 b23f 28a5 9b3f
00000020: 528a b23f 4ae8 9b3f 1f87 7f3f 27aa b73f
00000030: a843 bd3f 021b a03f 5436 af3f 282a c03f

classify.weight f4 [1, 512]
0.009276138 0.004374272 -0.0001260804 -0.0067442534 -0.0030927665 0.011647971 0.01846236 0.021652546
0.022426631 0.015957624 0.007296169 0.0053502354 0.013413416 0.018216098 0.016909996 0.015592336
0.013919291 0.012945393 0.009919331 0.00041930203 -0.009843787 -0.011824552 -0.0106803365 -0.0033504597
0.008255 0.012714323 0.011526411 0.0040414305 -0.0022628775 -0.008925211 -0.014150374 -0.013607208
0.0021587047 -0.0050098575 -0.0004369062 0.0017675798 0.011229649 0.014758726 0.017566051 0.020089097
0.01724138 0.013979516 0.012249009 0.013910934 0.01432097 0.015602169 0.016220193 0.015902355
0.012320438 0.007553587 0.0018771804 -0.0063444823 -0.0053191585 -0.007649652 -0.00072996644 0.002621411
0.0060619297 0.007837296 0.0008434161 -0.007753968 -0.009018924 -0.011612644 -0.010083754 -0.012124008
0.004650884 -0.0025924018 -0.0021507652 -0.0019546244 0.008071511 0.013147111 0.01568531 0.020657333
0.01911155 0.012663583 0.009076869 0.013923295 0.016277838 0.018455703 0.01932057 0.014878623
0.0137859015 0.009457873 0.003278293 -0.0030315593 -0.008625729 -0.006766199 -0.0021137903 0.0022675383
0.008721353 0.007949687 0.0027726847 -0.0038189292 -0.008015136 -0.010301348 -0.011553234 -0.012349457
-0.011058024 -0.006260333 -0.003795577 -0.0035658407 -0.008377549 -0.015054661 -0.016400613 -0.016319415
-0.01579694 -0.014065263 -0.013652311 -0.012372917 -0.014463274 -0.015129189 -0.011069404 -0.008787473
-0.00826685 -0.0072819106 -0.0063868472 -0.0027151164 0.0047666435 0.009158733 0.009756234 0.003744721
0.006932774 0.005457839 0.0025282458 -0.0011324422 -0.0024029096 0.0059627076 0.011217309 0.014289056
-0.011084495 -0.0074886 -0.004026807 -0.0037346128 -0.008004762 -0.018826272 -0.02068696 -0.020687783
-0.017515592 -0.015690682 -0.015871575 -0.016721614 -0.017018745 -0.016677408 -0.01411865 -0.010732646
-0.009932155 -0.009723884 -0.0058415253 -0.0027542582 0.001973875 0.0069450154 0.005911754 0.0031531597
0.00623494 0.0044878046 0.003369861 0.00015921221 0.00036043784 0.0041277874 0.012758625 0.011594965
0.0036190727 0.004434863 0.008616819 0.009513636 0.011386981 0.010641668 -4.8877064e-05 -0.00046619205
0.004313246 0.0066118683 0.005977518 0.0054680025 -0.0016107715 -0.0046118046 -0.0003710081 0.0021303983
0.0067159636 0.0045378893 0.010364715 0.013967393 0.015476409 0.008723154 0.007784984 0.002257683
0.0008087251 0.011288097 0.013793593 0.015120167 0.01177315 0.00964825 0.008852244 0.009958574
0.00418627 -0.00085085805 -0.0021690056 0.00013477982 0.0065730996 0.012471424 0.01506082 0.016242694
0.01778032 0.015917225 0.0124858515 0.013641942 0.015278332 0.015015386 0.015818298 0.01712419
0.014714063 0.008378161 0.0035566885 -0.0006368097 -0.003439695 -0.0073672603 -0.0058843675 -2.4818497e-05
0.0002282902 0.0070706224 0.005627639 -0.00033962983 -0.0063034752 -0.010763014 -0.011442268 -0.010296087
-0.010745815 -0.0061817337 -0.0049293153 -0.0056221574 -0.008300952 -0.015219918 -0.017361652 -0.018860584
-0.015765758 -0.013474478 -0.012436632 -0.013651229 -0.013192493 -0.013999067 -0.01288276 -0.011873477
-0.009274612 -0.007905497 -0.006870518 -0.004351309 0.003932676 0.00801336 0.007367208 0.0033532619
0.0065634307 0.0045478204 0.002916186 -0.0006381225 -0.0008903327 0.005564877 0.012503022 0.0127238035
00000000: f1fa 173c 0e56 8f3b 7334 04b9 e6fe dcbb
00000010: 03b0 4abb 22d7 3e3c 603e 973c ae60 b13c
00000020: 0eb8 b73c 90b9 823c b414 ef3b 0751 af3b
00000030: f2c3 5b3c ed39 953c d586 8a3c ff76 7f3c
00000040: bd0d 643c ea18 543c b184 223c c4d5 db39
00000050: d647 21bc c4bb 41bc 94fc 2ebc 6393 5bbb
00000060: fb3f 073c bc4f 503c 46d9 3c3c fa6d 843b
00000070: c94c 14bb 0c3b 12bc f8d6 67bc c4f0 5ebc
00000080: 0e79 0d3b bb29 a4bb 8f10 e5b9 23ae e73a
00000090: 90fc 373c 95ce 713c aee6 8f3c e491 a43c
000000a0: cb3d 8d3c 570a 653c 11b0 483c b0ea 633c
000000b0: 80a2 6a3c 3da0 7f3c 36e0 843c a845 823c
000000c0: aadb 493c 1584 f73b b90b f63a 60e5 cfbb
000000d0: 564c aebb efa9 fabb 385b 3fba fbcb 2b3b
000000e0: 27a3 c63b 0168 003c b218 5d3a ff14 febb
000000f0: 1cc4 13bc f642 3ebc 5436 25bc c6a3 46bc
00000100: 7166 983b 49e5 29bb daf3 0cbb 2819 00bb
00000110: 5f3e 043c fb66 573c 7b7e 803c 9139 a93c
00000120: d38f 9c3c eb7a 4f3c 26b7 143c 881e 643c
00000130: 1a59 853c 6a30 973c 2c46 9e3c 78c5 733c
00000140: 43de 613c 32f5 1a3c a1d8 563b 20ad 46bb
00000150: ee52 0dbc feb6 ddbb 8487 0abb fb9a 143b
00000160: 01e4 0e3c 673f 023c eeb5 353b 0047 7abb
00000170: eb51 03bc fcc6 28bc c749 3dbc 6055 4abc
00000180: b72c 35bc 7b23 cdbb 37bf 78bb e1b0 69bb
00000190: fd41 09bc d3a7 76bc 945a 86bc 4bb0 85bc
000001a0: 9668 81bc fd71 66bc f1ad 5fbc c6b7 4abc
000001b0: 5ef7 6cbc 6be0 77bc 725c 35bc 55f9 0fbc
000001c0: af71 07bc 189d eebb c248 d1bb 18f0 31bb
000001d0: 8131 9c3b 830e 163c 9cd8 1f3c fe69 753b
000001e0: 532c e33b acd7 b23b edb0 253b 746e 94ba
000001f0: 227a 1dbb d162 c33b cec8 373c a51c 6a3c
00000200: be9b 35bc ee62 f5bb 4ef3 83bb 68c0 74bb
00000210: 6826 03bc 8e39 9abc b377 a9bc 6d79 a9bc
00000220: dc7c 8fbc bf89 80bc 1b05 82bc c4fb 88bc
00000230: e56a 8bbc 0f9f 88bc e951 67bc fbd7 2fbc
00000240: 7aba 22bc ed50 1fbc 446a bfbb c980 34bb
00000250: 215c 013b 0393 e33b 63b7 c13b 3ea5 4e3b
00000260: 784e cc3b 6f0e 933b e3d8 5c3b 34f2 2639
00000270: 26f9 bc39 6442 873b 8d09 513c cff8 3d3c
00000280: f72d 6d3b 5452 913b 8f2d 0d3c 15df 1b3c
00000290: 7690 3a3c 645a 2e3c 5901 4db8 3d6b f4b9
000002a0: 2156 8d3b 5fa8 d83b 0edf c33b ee2c b33b
000002b0: 8620 d3ba 9f1e 97bb dd83 c2b9 279e 0b3b
000002c0: 9611 dc3b 93b2 943b c4d0 293c 7ed7 643c
000002d0: c490 7d3c 8feb 0e3c 2e19 ff3b a3f5 133b
000002e0: 9f00 543a b6f1 383c 86fe 613c 94ba 773c
000002f0: 2ce4 403c b213 1e3c 0109 113c 4929 233c
00000300: fa2c 893b 1e0c 5fba e025 0ebb af53 0d39
00000310: 2863 d73b f254 4c3c a8c1 763c 660f 853c
00000320: 09a8 913c d764 823c 7591 4c3c 7482 5f3c
00000330: f851 7a3c 1803 763c 6095 813c 0848 8c3c
00000340: 4113 713c 8e44 093c 5517 693b 93ef 26ba
00000350: 826c 61bb 0f69 f1bb a7d1 c0bb 5131 d0b7
00000360: 2f61 6f39 aeb0 e73b 0f68 b83b 5810 b2b9
00000370: 628d cebb 5a57 30bc 5a78 3bbc ebb0 28bc
00000380: 370f 30bc 2490 cabb 1886 a1bb 133a b8bb
00000390: b700 08bc f75c 79bc 063a 8ebc 8381 9abc
000003a0: 3127 81bc 0fc4 5cbc 04c3 4bbc 68a9 5fbc
000003b0: 5325 58bc 585c 65bc 3612 53bc f988 42bc
000003c0: 8bf4 17bc 0f86 01bc 1522 e1bb 6d95 8ebb
000003d0: addd 803b 784a 033c 9f68 f13b 66c2 5b3b
000003e0: 0c12 d73b e205 953b 7b1d 3f3b ad47 27ba
000003f0: 3765 69ba 9259 b63b 7ad9 4c3c 8077 503c
